node {
  name: "inputs"
  op: "Placeholder"
  attr {
    key: "dtype"
    value {
      type: DT_FLOAT
    }
  }
  attr {
    key: "shape"
    value {
      shape {
        dim {
          size: -1
        }
        dim {
          size: 40
        }
        dim {
          size: 2
        }
      }
    }
  }
}
node {
  name: "sequential_1/conv1d_3/Conv1D/ExpandDims/dim"
  op: "Const"
  attr {
    key: "dtype"
    value {
      type: DT_INT32
    }
  }
  attr {
    key: "value"
    value {
      tensor {
        dtype: DT_INT32
        tensor_shape {
        }
        int_val: -3
      }
    }
  }
}
node {
  name: "sequential_1/conv1d_3/Conv1D/ExpandDims"
  op: "ExpandDims"
  input: "inputs"
  input: "sequential_1/conv1d_3/Conv1D/ExpandDims/dim"
  attr {
    key: "T"
    value {
      type: DT_FLOAT
    }
  }
  attr {
    key: "Tdim"
    value {
      type: DT_INT32
    }
  }
}
node {
  name: "sequential_1/conv1d_3/Conv1D/ExpandDims_1/ReadVariableOp/resource"
  op: "Const"
  attr {
    key: "dtype"
    value {
      type: DT_FLOAT
    }
  }
  attr {
    key: "value"
    value {
      tensor {
        dtype: DT_FLOAT
        tensor_shape {
          dim {
            size: 7
          }
          dim {
            size: 2
          }
          dim {
            size: 16
          }
        }
        tensor_content: "…"
      }
    }
  }
}
node {
  name: "sequential_1/conv1d_3/Conv1D/ExpandDims_1/ReadVariableOp"
  op: "Identity"
  input: "sequential_1/conv1d_3/Conv1D/ExpandDims_1/ReadVariableOp/resource"
  attr {
    key: "T"
    value {
      type: DT_FLOAT
    }
  }
}
node {
  name: "sequential_1/conv1d_3/Conv1D/ExpandDims_1/dim"
  op: "Const"
  attr {
    key: "dtype"
    value {
      type: DT_INT32
    }
  }
  attr {
    key: "value"
    value {
      tensor {
        dtype: DT_INT32
        tensor_shape {
        }
        int_val: 0
      }
    }
  }
}
node {
  name: "sequential_1/conv1d_3/Conv1D/ExpandDims_1"
  op: "ExpandDims"
  input: "sequential_1/conv1d_3/Conv1D/ExpandDims_1/ReadVariableOp"
  input: "sequential_1/conv1d_3/Conv1D/ExpandDims_1/dim"
  attr {
    key: "T"
    value {
      type: DT_FLOAT
    }
  }
  attr {
    key: "Tdim"
    value {
      type: DT_INT32
    }
  }
}
node {
  name: "sequential_1/conv1d_3/Conv1D"
  op: "Conv2D"
  input: "sequential_1/conv1d_3/Conv1D/ExpandDims"
  input: "sequential_1/conv1d_3/Conv1D/ExpandDims_1"
  attr {
    key: "T"
    value {
      type: DT_FLOAT
    }
  }
  attr {
    key: "data_format"
    value {
      s: "NHWC"
    }
  }
  attr {
    key: "dilations"
    value {
      list {
        i: 1
        i: 1
        i: 1
        i: 1
      }
    }
  }
  attr {
    key: "explicit_paddings"
    value {
      list {
      }
    }
  }
  attr {
    key: "padding"
    value {
      s: "VALID"
    }
  }
  attr {
    key: "strides"
    value {
      list {
        i: 1
        i: 1
        i: 1
        i: 1
      }
    }
  }
  attr {
    key: "use_cudnn_on_gpu"
    value {
      b: true
    }
  }
}
node {
  name: "sequential_1/conv1d_3/Conv1D/Squeeze"
  op: "Squeeze"
  input: "sequential_1/conv1d_3/Conv1D"
  attr {
    key: "T"
    value {
      type: DT_FLOAT
    }
  }
  attr {
    key: "squeeze_dims"
    value {
      list {
        i: -3
      }
    }
  }
}
node {
  name: "sequential_1/conv1d_3/BiasAdd/ReadVariableOp/resource"
  op: "Const"
  attr {
    key: "dtype"
    value {
      type: DT_FLOAT
    }
  }
  attr {
    key: "value"
    value {
      tensor {
        dtype: DT_FLOAT
        tensor_shape {
          dim {
            size: 16
          }
        }
        tensor_content: "…"
      }
    }
  }
}
node {
  name: "sequential_1/conv1d_3/BiasAdd/ReadVariableOp"
  op: "Identity"
  input: "sequential_1/conv1d_3/BiasAdd/ReadVariableOp/resource"
  attr {
    key: "T"
    value {
      type: DT_FLOAT
    }
  }
}
node {
  name: "sequential_1/conv1d_3/BiasAdd"
  op: "BiasAdd"
  input: "sequential_1/conv1d_3/Conv1D/Squeeze"
  input: "sequential_1/conv1d_3/BiasAdd/ReadVariableOp"
  attr {
    key: "T"
    value {
      type: DT_FLOAT
    }
  }
  attr {
    key: "data_format"
    value {
      s: "NHWC"
    }
  }
}
node {
  name: "sequential_1/conv1d_3/Relu"
  op: "Relu"
  input: "sequential_1/conv1d_3/BiasAdd"
  attr {
    key: "T"
    value {
      type: DT_FLOAT
    }
  }
}
node {
  name: "sequential_1/dropout_1/Identity"
  op: "Identity"
  input: "sequential_1/conv1d_3/Relu"
  attr {
    key: "T"
    value {
      type: DT_FLOAT
    }
  }
}
node {
  name: "sequential_1/max_pooling1d_3/ExpandDims/dim"
  op: "Const"
  attr {
    key: "dtype"
    value {
      type: DT_INT32
    }
  }
  attr {
    key: "value"
    value {
      tensor {
        dtype: DT_INT32
        tensor_shape {
        }
        int_val: 2
      }
    }
  }
}
node {
  name: "sequential_1/max_pooling1d_3/ExpandDims"
  op: "ExpandDims"
  input: "sequential_1/dropout_1/Identity"
  input: "sequential_1/max_pooling1d_3/ExpandDims/dim"
  attr {
    key: "T"
    value {
      type: DT_FLOAT
    }
  }
  attr {
    key: "Tdim"
    value {
      type: DT_INT32
    }
  }
}
node {
  name: "sequential_1/max_pooling1d_3/MaxPool"
  op: "MaxPool"
  input: "sequential_1/max_pooling1d_3/ExpandDims"
  attr {
    key: "T"
    value {
      type: DT_FLOAT
    }
  }
  attr {
    key: "data_format"
    value {
      s: "NHWC"
    }
  }
  attr {
    key: "explicit_paddings"
    value {
      list {
      }
    }
  }
  attr {
    key: "ksize"
    value {
      list {
        i: 1
        i: 2
        i: 1
        i: 1
      }
    }
  }
  attr {
    key: "padding"
    value {
      s: "VALID"
    }
  }
  attr {
    key: "strides"
    value {
      list {
        i: 1
        i: 2
        i: 1
        i: 1
      }
    }
  }
}
node {
  name: "sequential_1/max_pooling1d_3/Squeeze"
  op: "Squeeze"
  input: "sequential_1/max_pooling1d_3/MaxPool"
  attr {
    key: "T"
    value {
      type: DT_FLOAT
    }
  }
  attr {
    key: "squeeze_dims"
    value {
      list {
        i: 2
      }
    }
  }
}
node {
  name: "sequential_1/conv1d_4/Conv1D/ExpandDims/dim"
  op: "Const"
  attr {
    key: "dtype"
    value {
      type: DT_INT32
    }
  }
  attr {
    key: "value"
    value {
      tensor {
        dtype: DT_INT32
        tensor_shape {
        }
        int_val: -3
      }
    }
  }
}
node {
  name: "sequential_1/conv1d_4/Conv1D/ExpandDims"
  op: "ExpandDims"
  input: "sequential_1/max_pooling1d_3/Squeeze"
  input: "sequential_1/conv1d_4/Conv1D/ExpandDims/dim"
  attr {
    key: "T"
    value {
      type: DT_FLOAT
    }
  }
  attr {
    key: "Tdim"
    value {
      type: DT_INT32
    }
  }
}
node {
  name: "sequential_1/conv1d_4/Conv1D/ExpandDims_1/ReadVariableOp/resource"
  op: "Const"
  attr {
    key: "dtype"
    value {
      type: DT_FLOAT
    }
  }
  attr {
    key: "value"
    value {
      tensor {
        dtype: DT_FLOAT
        tensor_shape {
          dim {
            size: 5
          }
          dim {
            size: 16
          }
          dim {
            size: 8
          }
        }
        tensor_content: "…"
      }
    }
  }
}
node {
  name: "sequential_1/conv1d_4/Conv1D/ExpandDims_1/ReadVariableOp"
  op: "Identity"
  input: "sequential_1/conv1d_4/Conv1D/ExpandDims_1/ReadVariableOp/resource"
  attr {
    key: "T"
    value {
      type: DT_FLOAT
    }
  }
}
node {
  name: "sequential_1/conv1d_4/Conv1D/ExpandDims_1/dim"
  op: "Const"
  attr {
    key: "dtype"
    value {
      type: DT_INT32
    }
  }
  attr {
    key: "value"
    value {
      tensor {
        dtype: DT_INT32
        tensor_shape {
        }
        int_val: 0
      }
    }
  }
}
node {
  name: "sequential_1/conv1d_4/Conv1D/ExpandDims_1"
  op: "ExpandDims"
  input: "sequential_1/conv1d_4/Conv1D/ExpandDims_1/ReadVariableOp"
  input: "sequential_1/conv1d_4/Conv1D/ExpandDims_1/dim"
  attr {
    key: "T"
    value {
      type: DT_FLOAT
    }
  }
  attr {
    key: "Tdim"
    value {
      type: DT_INT32
    }
  }
}
node {
  name: "sequential_1/conv1d_4/Conv1D"
  op: "Conv2D"
  input: "sequential_1/conv1d_4/Conv1D/ExpandDims"
  input: "sequential_1/conv1d_4/Conv1D/ExpandDims_1"
  attr {
    key: "T"
    value {
      type: DT_FLOAT
    }
  }
  attr {
    key: "data_format"
    value {
      s: "NHWC"
    }
  }
  attr {
    key: "dilations"
    value {
      list {
        i: 1
        i: 1
        i: 1
        i: 1
      }
    }
  }
  attr {
    key: "explicit_paddings"
    value {
      list {
      }
    }
  }
  attr {
    key: "padding"
    value {
      s: "VALID"
    }
  }
  attr {
    key: "strides"
    value {
      list {
        i: 1
        i: 1
        i: 1
        i: 1
      }
    }
  }
  attr {
    key: "use_cudnn_on_gpu"
    value {
      b: true
    }
  }
}
node {
  name: "sequential_1/conv1d_4/Conv1D/Squeeze"
  op: "Squeeze"
  input: "sequential_1/conv1d_4/Conv1D"
  attr {
    key: "T"
    value {
      type: DT_FLOAT
    }
  }
  attr {
    key: "squeeze_dims"
    value {
      list {
        i: -3
      }
    }
  }
}
node {
  name: "sequential_1/conv1d_4/BiasAdd/ReadVariableOp/resource"
  op: "Const"
  attr {
    key: "dtype"
    value {
      type: DT_FLOAT
    }
  }
  attr {
    key: "value"
    value {
      tensor {
        dtype: DT_FLOAT
        tensor_shape {
          dim {
            size: 8
          }
        }
        tensor_content: "…"
      }
    }
  }
}
node {
  name: "sequential_1/conv1d_4/BiasAdd/ReadVariableOp"
  op: "Identity"
  input: "sequential_1/conv1d_4/BiasAdd/ReadVariableOp/resource"
  attr {
    key: "T"
    value {
      type: DT_FLOAT
    }
  }
}
node {
  name: "sequential_1/conv1d_4/BiasAdd"
  op: "BiasAdd"
  input: "sequential_1/conv1d_4/Conv1D/Squeeze"
  input: "sequential_1/conv1d_4/BiasAdd/ReadVariableOp"
  attr {
    key: "T"
    value {
      type: DT_FLOAT
    }
  }
  attr {
    key: "data_format"
    value {
      s: "NHWC"
    }
  }
}
node {
  name: "sequential_1/conv1d_4/Relu"
  op: "Relu"
  input: "sequential_1/conv1d_4/BiasAdd"
  attr {
    key: "T"
    value {
      type: DT_FLOAT
    }
  }
}
node {
  name: "sequential_1/max_pooling1d_4/ExpandDims/dim"
  op: "Const"
  attr {
    key: "dtype"
    value {
      type: DT_INT32
    }
  }
  attr {
    key: "value"
    value {
      tensor {
        dtype: DT_INT32
        tensor_shape {
        }
        int_val: 2
      }
    }
  }
}
node {
  name: "sequential_1/max_pooling1d_4/ExpandDims"
  op: "ExpandDims"
  input: "sequential_1/conv1d_4/Relu"
  input: "sequential_1/max_pooling1d_4/ExpandDims/dim"
  attr {
    key: "T"
    value {
      type: DT_FLOAT
    }
  }
  attr {
    key: "Tdim"
    value {
      type: DT_INT32
    }
  }
}
node {
  name: "sequential_1/max_pooling1d_4/MaxPool"
  op: "MaxPool"
  input: "sequential_1/max_pooling1d_4/ExpandDims"
  attr {
    key: "T"
    value {
      type: DT_FLOAT
    }
  }
  attr {
    key: "data_format"
    value {
      s: "NHWC"
    }
  }
  attr {
    key: "explicit_paddings"
    value {
      list {
      }
    }
  }
  attr {
    key: "ksize"
    value {
      list {
        i: 1
        i: 2
        i: 1
        i: 1
      }
    }
  }
  attr {
    key: "padding"
    value {
      s: "VALID"
    }
  }
  attr {
    key: "strides"
    value {
      list {
        i: 1
        i: 2
        i: 1
        i: 1
      }
    }
  }
}
node {
  name: "sequential_1/max_pooling1d_4/Squeeze"
  op: "Squeeze"
  input: "sequential_1/max_pooling1d_4/MaxPool"
  attr {
    key: "T"
    value {
      type: DT_FLOAT
    }
  }
  attr {
    key: "squeeze_dims"
    value {
      list {
        i: 2
      }
    }
  }
}
node {
  name: "sequential_1/conv1d_5/Conv1D/ExpandDims/dim"
  op: "Const"
  attr {
    key: "dtype"
    value {
      type: DT_INT32
    }
  }
  attr {
    key: "value"
    value {
      tensor {
        dtype: DT_INT32
        tensor_shape {
        }
        int_val: -3
      }
    }
  }
}
node {
  name: "sequential_1/conv1d_5/Conv1D/ExpandDims"
  op: "ExpandDims"
  input: "sequential_1/max_pooling1d_4/Squeeze"
  input: "sequential_1/conv1d_5/Conv1D/ExpandDims/dim"
  attr {
    key: "T"
    value {
      type: DT_FLOAT
    }
  }
  attr {
    key: "Tdim"
    value {
      type: DT_INT32
    }
  }
}
node {
  name: "sequential_1/conv1d_5/Conv1D/ExpandDims_1/ReadVariableOp/resource"
  op: "Const"
  attr {
    key: "dtype"
    value {
      type: DT_FLOAT
    }
  }
  attr {
    key: "value"
    value {
      tensor {
        dtype: DT_FLOAT
        tensor_shape {
          dim {
            size: 3
          }
          dim {
            size: 8
          }
          dim {
            size: 4
          }
        }
        tensor_content: "…"
      }
    }
  }
}
node {
  name: "sequential_1/conv1d_5/Conv1D/ExpandDims_1/ReadVariableOp"
  op: "Identity"
  input: "sequential_1/conv1d_5/Conv1D/ExpandDims_1/ReadVariableOp/resource"
  attr {
    key: "T"
    value {
      type: DT_FLOAT
    }
  }
}
node {
  name: "sequential_1/conv1d_5/Conv1D/ExpandDims_1/dim"
  op: "Const"
  attr {
    key: "dtype"
    value {
      type: DT_INT32
    }
  }
  attr {
    key: "value"
    value {
      tensor {
        dtype: DT_INT32
        tensor_shape {
        }
        int_val: 0
      }
    }
  }
}
node {
  name: "sequential_1/conv1d_5/Conv1D/ExpandDims_1"
  op: "ExpandDims"
  input: "sequential_1/conv1d_5/Conv1D/ExpandDims_1/ReadVariableOp"
  input: "sequential_1/conv1d_5/Conv1D/ExpandDims_1/dim"
  attr {
    key: "T"
    value {
      type: DT_FLOAT
    }
  }
  attr {
    key: "Tdim"
    value {
      type: DT_INT32
    }
  }
}
node {
  name: "sequential_1/conv1d_5/Conv1D"
  op: "Conv2D"
  input: "sequential_1/conv1d_5/Conv1D/ExpandDims"
  input: "sequential_1/conv1d_5/Conv1D/ExpandDims_1"
  attr {
    key: "T"
    value {
      type: DT_FLOAT
    }
  }
  attr {
    key: "data_format"
    value {
      s: "NHWC"
    }
  }
  attr {
    key: "dilations"
    value {
      list {
        i: 1
        i: 1
        i: 1
        i: 1
      }
    }
  }
  attr {
    key: "explicit_paddings"
    value {
      list {
      }
    }
  }
  attr {
    key: "padding"
    value {
      s: "VALID"
    }
  }
  attr {
    key: "strides"
    value {
      list {
        i: 1
        i: 1
        i: 1
        i: 1
      }
    }
  }
  attr {
    key: "use_cudnn_on_gpu"
    value {
      b: true
    }
  }
}
node {
  name: "sequential_1/conv1d_5/Conv1D/Squeeze"
  op: "Squeeze"
  input: "sequential_1/conv1d_5/Conv1D"
  attr {
    key: "T"
    value {
      type: DT_FLOAT
    }
  }
  attr {
    key: "squeeze_dims"
    value {
      list {
        i: -3
      }
    }
  }
}
node {
  name: "sequential_1/conv1d_5/BiasAdd/ReadVariableOp/resource"
  op: "Const"
  attr {
    key: "dtype"
    value {
      type: DT_FLOAT
    }
  }
  attr {
    key: "value"
    value {
      tensor {
        dtype: DT_FLOAT
        tensor_shape {
          dim {
            size: 4
          }
        }
        tensor_content: "\252\\8>\262\270\004\275\324\302\261\275\242\034\t="
      }
    }
  }
}
node {
  name: "sequential_1/conv1d_5/BiasAdd/ReadVariableOp"
  op: "Identity"
  input: "sequential_1/conv1d_5/BiasAdd/ReadVariableOp/resource"
  attr {
    key: "T"
    value {
      type: DT_FLOAT
    }
  }
}
node {
  name: "sequential_1/conv1d_5/BiasAdd"
  op: "BiasAdd"
  input: "sequential_1/conv1d_5/Conv1D/Squeeze"
  input: "sequential_1/conv1d_5/BiasAdd/ReadVariableOp"
  attr {
    key: "T"
    value {
      type: DT_FLOAT
    }
  }
  attr {
    key: "data_format"
    value {
      s: "NHWC"
    }
  }
}
node {
  name: "sequential_1/conv1d_5/Relu"
  op: "Relu"
  input: "sequential_1/conv1d_5/BiasAdd"
  attr {
    key: "T"
    value {
      type: DT_FLOAT
    }
  }
}
node {
  name: "sequential_1/max_pooling1d_5/ExpandDims/dim"
  op: "Const"
  attr {
    key: "dtype"
    value {
      type: DT_INT32
    }
  }
  attr {
    key: "value"
    value {
      tensor {
        dtype: DT_INT32
        tensor_shape {
        }
        int_val: 2
      }
    }
  }
}
node {
  name: "sequential_1/max_pooling1d_5/ExpandDims"
  op: "ExpandDims"
  input: "sequential_1/conv1d_5/Relu"
  input: "sequential_1/max_pooling1d_5/ExpandDims/dim"
  attr {
    key: "T"
    value {
      type: DT_FLOAT
    }
  }
  attr {
    key: "Tdim"
    value {
      type: DT_INT32
    }
  }
}
node {
  name: "sequential_1/max_pooling1d_5/MaxPool"
  op: "MaxPool"
  input: "sequential_1/max_pooling1d_5/ExpandDims"
  attr {
    key: "T"
    value {
      type: DT_FLOAT
    }
  }
  attr {
    key: "data_format"
    value {
      s: "NHWC"
    }
  }
  attr {
    key: "explicit_paddings"
    value {
      list {
      }
    }
  }
  attr {
    key: "ksize"
    value {
      list {
        i: 1
        i: 2
        i: 1
        i: 1
      }
    }
  }
  attr {
    key: "padding"
    value {
      s: "VALID"
    }
  }
  attr {
    key: "strides"
    value {
      list {
        i: 1
        i: 2
        i: 1
        i: 1
      }
    }
  }
}
node {
  name: "sequential_1/max_pooling1d_5/Squeeze"
  op: "Squeeze"
  input: "sequential_1/max_pooling1d_5/MaxPool"
  attr {
    key: "T"
    value {
      type: DT_FLOAT
    }
  }
  attr {
    key: "squeeze_dims"
    value {
      list {
        i: 2
      }
    }
  }
}
node {
  name: "sequential_1/flatten_1/Const"
  op: "Const"
  attr {
    key: "dtype"
    value {
      type: DT_INT32
    }
  }
  attr {
    key: "value"
    value {
      tensor {
        dtype: DT_INT32
        tensor_shape {
          dim {
            size: 2
          }
        }
        tensor_content: "\377\377\377\377\010\000\000\000"
      }
    }
  }
}
node {
  name: "sequential_1/flatten_1/Reshape"
  op: "Reshape"
  input: "sequential_1/max_pooling1d_5/Squeeze"
  input: "sequential_1/flatten_1/Const"
  attr {
    key: "T"
    value {
      type: DT_FLOAT
    }
  }
  attr {
    key: "Tshape"
    value {
      type: DT_INT32
    }
  }
}
node {
  name: "sequential_1/Dense_1/MatMul/ReadVariableOp/resource"
  op: "Const"
  attr {
    key: "dtype"
    value {
      type: DT_FLOAT
    }
  }
  attr {
    key: "value"
    value {
      tensor {
        dtype: DT_FLOAT
        tensor_shape {
          dim {
            size: 8
          }
          dim {
            size: 32
          }
        }
        tensor_content: "…"
      }
    }
  }
}
node {
  name: "sequential_1/Dense_1/MatMul/ReadVariableOp"
  op: "Identity"
  input: "sequential_1/Dense_1/MatMul/ReadVariableOp/resource"
  attr {
    key: "T"
    value {
      type: DT_FLOAT
    }
  }
}
node {
  name: "sequential_1/Dense_1/MatMul"
  op: "MatMul"
  input: "sequential_1/flatten_1/Reshape"
  input: "sequential_1/Dense_1/MatMul/ReadVariableOp"
  attr {
    key: "T"
    value {
      type: DT_FLOAT
    }
  }
  attr {
    key: "transpose_a"
    value {
      b: false
    }
  }
  attr {
    key: "transpose_b"
    value {
      b: false
    }
  }
}
node {
  name: "sequential_1/Dense_1/BiasAdd/ReadVariableOp/resource"
  op: "Const"
  attr {
    key: "dtype"
    value {
      type: DT_FLOAT
    }
  }
  attr {
    key: "value"
    value {
      tensor {
        dtype: DT_FLOAT
        tensor_shape {
          dim {
            size: 32
          }
        }
        tensor_content: "…"
      }
    }
  }
}
node {
  name: "sequential_1/Dense_1/BiasAdd/ReadVariableOp"
  op: "Identity"
  input: "sequential_1/Dense_1/BiasAdd/ReadVariableOp/resource"
  attr {
    key: "T"
    value {
      type: DT_FLOAT
    }
  }
}
node {
  name: "sequential_1/Dense_1/BiasAdd"
  op: "BiasAdd"
  input: "sequential_1/Dense_1/MatMul"
  input: "sequential_1/Dense_1/BiasAdd/ReadVariableOp"
  attr {
    key: "T"
    value {
      type: DT_FLOAT
    }
  }
  attr {
    key: "data_format"
    value {
      s: "NHWC"
    }
  }
}
node {
  name: "sequential_1/Dense_1/Relu"
  op: "Relu"
  input: "sequential_1/Dense_1/BiasAdd"
  attr {
    key: "T"
    value {
      type: DT_FLOAT
    }
  }
}
node {
  name: "sequential_1/Dense_2/MatMul/ReadVariableOp/resource"
  op: "Const"
  attr {
    key: "dtype"
    value {
      type: DT_FLOAT
    }
  }
  attr {
    key: "value"
    value {
      tensor {
        dtype: DT_FLOAT
        tensor_shape {
          dim {
            size: 32
          }
          dim {
            size: 2
          }
        }
        tensor_content: "…"
      }
    }
  }
}
node {
  name: "sequential_1/Dense_2/MatMul/ReadVariableOp"
  op: "Identity"
  input: "sequential_1/Dense_2/MatMul/ReadVariableOp/resource"
  attr {
    key: "T"
    value {
      type: DT_FLOAT
    }
  }
}
node {
  name: "sequential_1/Dense_2/MatMul"
  op: "MatMul"
  input: "sequential_1/Dense_1/Relu"
  input: "sequential_1/Dense_2/MatMul/ReadVariableOp"
  attr {
    key: "T"
    value {
      type: DT_FLOAT
    }
  }
  attr {
    key: "transpose_a"
    value {
      b: false
    }
  }
  attr {
    key: "transpose_b"
    value {
      b: false
    }
  }
}
node {
  name: "sequential_1/Dense_2/BiasAdd/ReadVariableOp/resource"
  op: "Const"
  attr {
    key: "dtype"
    value {
      type: DT_FLOAT
    }
  }
  attr {
    key: "value"
    value {
      tensor {
        dtype: DT_FLOAT
        tensor_shape {
          dim {
            size: 2
          }
        }
        tensor_content: "\207E`>UE`\276"
      }
    }
  }
}
node {
  name: "sequential_1/Dense_2/BiasAdd/ReadVariableOp"
  op: "Identity"
  input: "sequential_1/Dense_2/BiasAdd/ReadVariableOp/resource"
  attr {
    key: "T"
    value {
      type: DT_FLOAT
    }
  }
}
node {
  name: "sequential_1/Dense_2/BiasAdd"
  op: "BiasAdd"
  input: "sequential_1/Dense_2/MatMul"
  input: "sequential_1/Dense_2/BiasAdd/ReadVariableOp"
  attr {
    key: "T"
    value {
      type: DT_FLOAT
    }
  }
  attr {
    key: "data_format"
    value {
      s: "NHWC"
    }
  }
}
node {
  name: "sequential_1/Dense_2/Softmax"
  op: "Softmax"
  input: "sequential_1/Dense_2/BiasAdd"
  attr {
    key: "T"
    value {
      type: DT_FLOAT
    }
  }
}
node {
  name: "NoOp"
  op: "NoOp"
  input: "^sequential_1/Dense_1/BiasAdd/ReadVariableOp"
  input: "^sequential_1/Dense_1/MatMul/ReadVariableOp"
  input: "^sequential_1/Dense_2/BiasAdd/ReadVariableOp"
  input: "^sequential_1/Dense_2/MatMul/ReadVariableOp"
  input: "^sequential_1/conv1d_3/BiasAdd/ReadVariableOp"
  input: "^sequential_1/conv1d_3/Conv1D/ExpandDims_1/ReadVariableOp"
  input: "^sequential_1/conv1d_4/BiasAdd/ReadVariableOp"
  input: "^sequential_1/conv1d_4/Conv1D/ExpandDims_1/ReadVariableOp"
  input: "^sequential_1/conv1d_5/BiasAdd/ReadVariableOp"
  input: "^sequential_1/conv1d_5/Conv1D/ExpandDims_1/ReadVariableOp"
  attr {
    key: "_acd_function_control_output"
    value {
      b: true
    }
  }
}
node {
  name: "Identity"
  op: "Identity"
  input: "sequential_1/Dense_2/Softmax"
  input: "^NoOp"
  attr {
    key: "T"
    value {
      type: DT_FLOAT
    }
  }
}
versions {
  producer: 987
}
